classifier_epoch0_model.pth (torch, 162851 bytes, 7 tensors)

word_embeddings.weight f4 [391, 50]
-0.5077162 -0.35308978 -1.0653071 -1.461272 1.0105323 1.0482819 -1.2511355 -1.2813147
0.85744935 -0.384244 -1.634362 2.2582083 -0.48538882 0.9469949 -1.4950485 2.0778842
-1.3838869 -0.9922165 0.5635158 -0.59327465 0.4971608 -0.9211539 0.019283537 -1.3566033
1.1745627 -0.6782341 0.072739445 0.003479177 0.59539235 0.9189866 0.46677625 -1.9498875
0.659435 -0.4647324 0.22734433 0.11657688 0.6850492 -0.40815565 0.5019133 -0.80718124
1.8588212 -0.3489662 -1.526243 -0.012447296 -1.5844659 -0.85463494 -0.34878588 0.59743655
-0.34300962 -1.6686679 -1.9557972 0.011037734 0.016858622 -0.69572073 0.028656395 -0.2955337
1.7486731 0.59325415 -0.16019332 0.79139674 -0.72639847 0.055159118 0.25049883 -0.6803719
0.9558113 -2.4746625 0.013786469 -0.101686224 -0.7346806 -0.9846457 0.6769683 -2.0109477
-1.6701088 -1.9454247 1.0965636 0.6142665 0.69984335 1.1384977 -1.0096984 -0.14579102
-0.564813 -1.2117097 1.3455011 -0.7827501 0.68254143 -0.60316014 0.46020082 0.34036326
-0.47957987 1.2981042 1.8366892 -0.04789208 -1.258855 -0.53657305 0.6569946 -0.29598445
0.8214438 0.44623187 -0.7577779 -0.34349832 -0.13860969 -0.5214735 0.6461485 -0.6433079
-1.1084106 0.9201904 -2.252285 0.22941576 -1.4965546 0.4326821 -0.7488857 -0.9877773
-0.082415886 -0.32176498 3.2210395 -0.48655805 0.6763887 0.2743371 -1.2187147 -0.021047585
0.48694098 0.3603534 -0.5338801 0.10874448 -0.08054869 -0.03315509 0.77902055 0.8420245
-0.120674655 -0.20229363 0.51040906 -0.6637035 1.0566977 0.2848426 1.5607467 -0.25300094
-0.81337583 -1.9538924 0.6251425 -2.6954932 -0.20898879 -0.503702 -0.6078347 0.51407766
0.40630582 0.576291 0.22408456 1.6624913 0.74092597 2.1429896 0.5065524 0.12521775
-1.864209 0.8533369 0.08265491 -0.96609616 -0.89755094 0.95396644 -0.78551555 1.3714523
0.99664783 0.18120849 -0.07464607 -0.34426418 -1.5867954 -1.1265924 0.5010159 -1.435584
1.7305499 -0.115799986 0.04907379 -1.1011117 2.2784274 -1.4111562 -1.0361893 1.4093647
-0.68701345 1.3933034 -0.07780344 1.381451 1.0268877 1.1192704 0.56685305 -1.8599951
1.0743259 -0.17077684 -0.7538588 1.7342008 0.76365817 -0.04810276 -0.1930751 -0.86849314
1.7803794 -1.1129065 -0.63413477 0.46874356 -0.6588422 0.29064512 0.087915346 0.8650127
-0.6909063 1.8892032 1.4045289 0.5311002 -0.10220801 -0.3924694 -0.6720434 -1.7553483
-0.24464981 0.7743764 0.8200755 0.57608813 0.30768675 0.20140782 -0.99091965 0.78800595
-0.20814615 0.13114169 0.40432614 0.14967728 -0.5899104 -1.0519922 -0.09755783 0.51464176
0.18064082 -0.21485235 1.9988147 -0.012283877 -0.96914184 0.27329817 1.1972346 0.22696872
-1.1326855 -1.2575209 -1.3334187 0.588269 0.82084656 -1.7072742 -2.2608583 0.5263645
-1.0625676 -0.19926779 -0.29045582 -0.6004834 0.81595707 -0.38016206 0.8529947 0.11079543
0.2713916 -1.1805559 1.71941 -0.06295962 -0.88345885 -0.7617761 -1.8553953 -4.0327125
00000000: b0f9 01bf 2fc8 b4be fc5b 88bf f60a bbbf
00000010: 1f59 813f 1a2e 863f 3525 a0bf 1f02 a4bf
00000020: cd81 5b3f a1bb c4be c632 d1bf 7c86 1040
00000030: e284 f8be 426e 723f c05d bfbf 0efc 0440
00000040: 3523 b1bf e701 7ebf 9242 103f d9e0 17bf
00000050: dc8b fe3e bed0 6bbf 82f8 9d3c 2da5 adbf
00000060: 1258 963f c0a0 2dbf 6bf8 943d e702 643b
00000070: a26b 183f b542 6b3f 4cfd ee3e ea95 f9bf
00000080: bbd0 283f 68f1 edbe f4cc 683e dcbf ee3d
00000090: 625f 2f3f c7f9 d0be 647d 003f 6ea3 4ebf
000000a0: daed ed3f b3ab b2be ee5b c3bf beef 4bbc
000000b0: c7cf cabf 5bc9 5abf 1094 b2be 9af1 183f
000000c0: f59e afbe e996 d5bf 9057 fabf 9dd7 343c
000000d0: 181b 8a3c c11a 32bf d1c0 ea3c 3150 97be
000000e0: 85d4 df3f 81df 173f b809 24be fa98 4a3f
000000f0: 40f5 39bf 87ee 613d 6241 803e da2c 2ebf
00000100: 0db0 743f df60 1ec0 a4e0 613c de40 d0bd
00000110: 0714 3cbf be11 7cbf cb4d 2d3f 5eb3 00c0
00000120: 20c6 d5bf ad03 f9bf 325c 8c3f 9240 1d3f
00000130: ef28 333f 4bba 913f cc3d 81bf 3e4a 15be
00000140: 9697 10bf 4e19 9bbf 6139 ac3f 5062 48bf
00000150: 09bb 2e3f b468 1abf 719f eb3e 1844 ae3e
00000160: 7e8b f5be 4728 a63f a218 eb3f 7c2a 44bd
00000170: 2922 a1bf da5c 09bf cc30 283f 468b 97be
00000180: 244a 523f 8178 e43e bcfd 41bf 03df afbe
00000190: b3ef 0dbe 4a7f 05bf fd69 253f d4af 24bf
000001a0: 66e0 8dbf 9991 6b3f 7025 10c0 f7eb 6a3e
000001b0: 1a8f bfbf 8288 dd3e f9b6 3fbf f9de 7cbf
000001c0: a9c9 a8bd 61be a4be 8325 4e40 231e f9be
000001d0: cf27 2d3f ea75 8c3e d8fe 9bbf fc6b acbc
000001e0: 5450 f93e 3e80 b83e 5eac 08bf 6db5 de3d
000001f0: b6f6 a4bd a2cd 07bd e46d 473f eb8e 573f
00000200: 4624 f7bd 1026 4fbe 2baa 023f 79e8 29bf
00000210: df41 873f e4d6 913e 8cc6 c73f 5789 81be
00000220: 6639 50bf 2519 fabf 5709 203f f682 2cc0
00000230: 2801 56be 9df2 00bf 0e9b 1bbf 989a 033f
00000240: 5107 d03e cf87 133f 6c76 653e 84cc d43f
00000250: 53ad 3d3f be26 0940 6bad 013f 1539 003e
00000260: 679e eebf 4974 5a3f fa46 a93d 1452 77bf
00000270: e6c5 65bf 2537 743f 8c17 49bf c08b af3f
00000280: 5024 7f3f b88e 393e 0ae0 98bd 6543 b0be
00000290: 1d1c cbbf 2e34 90bf 9442 003f 37c1 b7bf
000002a0: a982 dd3f 8b28 edbd 9901 493d 3af1 8cbf
000002b0: c1d1 1140 c4a0 b4bf daa1 84bf 1066 b43f
000002c0: 1de0 2fbf c457 b23f 6957 9fbd 63d3 b03f
000002d0: 0e71 833f 4144 8f3f 481d 113f 5214 eebf
000002e0: 8383 893f 20e0 2ebe e4fc 40bf 4bfa dd3f
000002f0: 1a7f 433f 6607 45bd 7bb5 45be 9155 5ebf
00000300: 79e3 e33f b873 8ebf a856 22bf 28ff ef3e
00000310: e2a9 28bf 70cf 943e f60c b43d 7971 5d3f
00000320: 3cdf 30bf 69d1 f13f 9ac7 b33f 2ff6 073f
00000330: 6f52 d1bd c0f1 c8be 090b 2cbf 41af e0bf
00000340: 7b85 7abe 883d 463f 78f0 513f 837a 133f
00000350: 1e89 9d3e da3d 4e3e e9ac 7dbf c2ba 493f
00000360: 4424 55be 024a 063e d603 cf3e 0045 193e
00000370: 5e04 17bf aea7 86bf 66cc c7bd 90bf 033f
00000380: e8f9 383e 4102 5cbe 29d9 ff3f 5042 49bc
00000390: ae19 78bf bded 8b3e fc3e 993f 7d6a 683e
000003a0: d7fb 90bf 72f6 a0bf 77ad aabf cc98 163f
000003b0: 0023 523f f687 dabf e7b1 10c0 d3bf 063f
000003c0: 3702 88bf db0c 4cbe a0b6 94be 48b9 19bf
000003d0: 90e2 503f 9aa4 c2be dc5d 5a3f b7e8 e23d
000003e0: d7f3 8a3e 751c 97bf a015 dc3f f9f0 80bd
000003f0: 5c2a 62bf c203 43bf 987d edbf fb0b 81c0

lstm.weight_ih_l0 f4 [200, 50]
-0.35120347 -0.3529304 0.4802739 -0.35036594 0.50504035 -0.42104965 0.43150008 -0.3966802
0.38104403 0.22287306 0.22020733 0.13298784 -0.059687335 0.2318323 0.2621995 -0.2937458
0.2969762 0.4182578 -0.26531285 -0.44454187 -0.28224197 0.36874536 -0.18206726 0.44482216
0.36422247 -0.28819576 -0.36860612 -0.1339931 -0.296724 -0.4780695 0.26877823 0.4053225
0.3776347 -0.42178366 0.28942764 0.3906202 0.43405578 -0.29828468 -0.2545215 -0.21846631
0.37384078 0.4457517 -0.38874036 0.37836206 0.40600154 0.20165825 -0.38224208 -0.25889695
0.49400744 0.3852191 0.35267106 0.3240185 0.18944524 0.27027112 -0.45500818 -0.31583965
0.4301486 0.42471164 0.07282226 0.39620546 0.2986552 -0.11171964 -0.36686945 -0.32205892
-0.27398068 0.09886737 -0.35798433 -0.31363732 -0.21973841 -0.10407475 0.39477322 0.08352865
-0.48170984 0.03507221 0.0028783234 0.5327148 0.3992306 -0.36969936 0.16793731 0.28612667
0.28150856 -0.21178441 -0.03746372 0.20392887 -0.270795 -0.31126273 0.21849635 -0.18565808
0.42246902 -0.25657967 0.36103243 -0.28343275 0.43623424 -0.33712432 0.27604744 0.2762683
0.35277608 -0.0627767 -0.3247764 0.09694418 0.33728248 0.3521598 -0.3789011 0.46016407
-0.35232988 -0.17444243 0.43837795 0.49011168 -0.22574095 0.3009984 0.12905379 0.43953308
-0.31632525 -0.36059976 -0.48916557 0.3441061 -0.34349057 -0.2527899 -0.22496884 0.29752126
0.4320753 -0.39675593 -0.2996177 -0.35084736 -0.3544913 0.43620297 0.40878505 0.25373042
0.2954071 0.31888518 0.40143576 0.01318392 -0.30551043 0.22391441 -0.2609054 -0.23784004
0.37709743 0.46941146 0.26426366 -0.37024426 0.3747823 -0.24168864 0.33216667 -0.45805654
0.28879485 0.1978932 0.22988951 -0.33028 -0.38166845 -0.29983371 -0.5080942 -0.179401
0.28661755 -0.46264744 0.3395383 -0.295693 0.12245648 -0.1686668 -0.28113094 0.37390563
0.44040605 -0.25519207 -0.3165068 0.41986105 0.19521052 -0.15786403 0.43802473 0.2329335
-0.36027852 -0.25036028 -0.29819784 0.4506241 0.623999 0.24281335 0.4559396 -0.56898737
-0.4317235 -0.40563425 -0.51607656 -0.4239217 -0.20371133 -0.6119011 0.5034612 -0.25858742
0.06972912 0.45181254 0.49188292 -0.24895988 0.16951944 -0.24672696 0.27930853 0.41878876
-0.2343072 0.38183364 0.17406972 -0.13742436 -0.4556395 0.46922776 0.59245026 0.31052735
-0.40423498 -0.26037306 0.2584315 -0.3216018 0.2694094 -0.38348 0.4767676 -0.45815495
0.3325013 0.25672626 0.27876022 -0.4117807 0.46830526 0.33892247 0.35205153 -0.32522932
0.37636265 0.24710274 -0.4856956 -0.23750633 -0.18610409 0.47225103 0.3439044 0.33660114
0.36118296 -0.19832735 -0.22135356 -0.34458682 -0.24585217 -0.47028327 0.23547529 -0.33527663
0.37912384 -0.45761895 0.41754273 0.3210618 0.48989016 -0.26306883 -0.4376838 -0.32025895
0.27611408 0.38222775 -0.3909406 0.25106567 0.39952242 0.42152828 -0.34735107 -0.26291418
0.33344483 0.467045 -0.15193953 -0.4776554 0.5373652 0.31724563 0.31405216 -0.31450903
00000000: f1d0 b3be 4bb3 b4be 76e6 f53e 2a63 b3be
00000010: 534a 013f d293 d7be 94ed dc3e ab19 cbbe
00000020: 3418 c33e d638 643e 087e 613e f72d 083e
00000030: b57a 74bd 7265 6d3e 033f 863e d965 96be
00000040: 440d 983e e325 d63e 16d7 87be fe9a e3be
00000050: 0582 90be 31cc bc3e d76f 3abe bbbf e33e
00000060: 5e7b ba3e 658e 93be f1b9 bcbe 7d35 09be
00000070: 35ec 97be 87c5 f4be 4d9d 893e 6e86 cf3e
00000080: 5659 c13e 07f4 d7be dc2f 943e 5fff c73e
00000090: 8f3c de3e c5b8 98be a450 82be a2b5 5fbe
000000a0: 0f68 bf3e 9139 e43e fa08 c7be acb8 c13e
000000b0: 6fdf cf3e 807f 4e3e 3cb5 c3be 248e 84be
000000c0: 8bee fc3e 703b c53e 4d91 b43e c1e5 a53e
000000d0: effd 413e fa60 8a3e d5f6 e8be bcb5 a1be
000000e0: 703c dc3e ce73 d93e d623 953d 71db ca3e
000000f0: 56e9 983e 44cd e4bd 50d6 bbbe e8e4 a4be
00000100: 3247 8cbe fa7a ca3d b949 b7be 1295 a0be
00000110: 1b03 61be 2425 d5bd b71f ca3e 1211 ab3d
00000120: aca2 f6be e1a7 0f3d 41a2 3c3b ff5f 083f
00000130: f467 cc3e 3c49 bdbe c2f7 2b3e 327f 923e
00000140: e421 903e 03de 58be 8f73 19bd bbd2 503e
00000150: a4a5 8abe d45d 9fbe 82bd 5f3e 271d 3ebe
00000160: dc4d d83e 695e 83be 3ed9 b83e 191e 91be
00000170: 185a df3e 8f9b acbe 1756 8d3e 0a73 8d3e
00000180: 119f b43e 1291 80bd 1849 a6be ac8a c63d
00000190: 4ab0 ac3e 4a4e b43e 53ff c1be a09a eb3e
000001a0: 9564 b4be 09a1 32be 1373 e03e ebef fa3e
000001b0: a328 67be 761c 9a3e ad26 043e 7b0a e13e
000001c0: 62f5 a1be 88a0 b8be e973 fabe ad2e b03e
000001d0: ffdd afbe ae6d 81be 3b5e 66be b554 983e
000001e0: f938 dd3e 9823 cbbe 7e67 99be 44a2 b3be
000001f0: e27f b5be ff55 df3e 464c d13e f4e8 813e
00000200: 993f 973e eb44 a33e fd88 cd3e 5e01 583c
00000210: dd6b 9cbe d249 653e 6595 85be 578c 73be
00000220: ea12 c13e b356 f03e 914d 873e a890 bdbe
00000230: 77e3 bf3e 3a7d 77be c011 aa3e 6386 eabe
00000240: ebdc 933e 84a4 4a3e 2868 6b3e 761a a9be
00000250: 0c6a c3be ce83 99be 7612 02bf e5b4 37be
00000260: 89bf 923e 20e0 ecbe f7d7 ad3e 1365 97be
00000270: 77ca fa3d fdb6 2cbe 65f0 8fbe 8f70 bf3e
00000280: e77c e13e 89a8 82be 2e0d a2be 07f8 d63e
00000290: 44e5 473e 1ca7 21be c744 e03e 1f86 6e3e
000002a0: 6d76 b8be 392f 80be 63ad 98be 34b8 e63e
000002b0: 66be 1f3f 10a4 783e ea70 e93e 28a9 11bf
000002c0: dd0a ddbe 4baf cfbe 981d 04bf 440c d9be
000002d0: b499 50be 8da5 1cbf d5e2 003f 9265 84be
000002e0: 24ce 8e3d f953 e73e 14d8 fb3e 57ef 7ebe
000002f0: 8196 2d3e fea5 7cbe 8701 8f3e 7b6b d63e
00000300: 3aee 6fbe b37f c33e 553f 323e f9b8 0cbe
00000310: 9549 e9be 9f3e f03e d2aa 173f 71fd 9e3e
00000320: e3f7 cebe 9e4f 85be 2251 843e fea8 a4be
00000330: 07f0 893e 7e57 c4be e21a f43e 4993 eabe
00000340: 9c3d aa3e a071 833e a9b9 8e3e ebd4 d2be
00000350: b5c5 ef3e 3f87 ad3e 1940 b43e 7584 a6be
00000360: 9bb2 c03e 8008 7d3e 18ad f8be dc34 73be
00000370: 1292 3ebe e3ca f13e 3d14 b03e fc56 ac3e
00000380: f9ec b83e 5316 4bbe 82aa 62be af6d b0be
00000390: acc0 7bbe f8c8 f0be 6f20 713e 61a9 abbe
000003a0: 851c c23e 084d eabe 29c8 d53e 3662 a43e
000003b0: e2d2 fa3e f5b0 86be 1718 e0be fbf8 a3be
000003c0: d35e 8d3e 5bb3 c33e 5e29 c8be ae8b 803e
000003d0: 348e cc3e 8ed2 d73e 00d8 b1be b09c 86be
000003e0: 48b9 aa3e 8620 ef3e 0996 1bbe 408f f4be
000003f0: c490 093f 056e a23e 72cb a03e 5407 a1be

lstm.weight_hh_l0 f4 [200, 50]
-0.021971473 0.08078184 0.2536366 0.23129995 0.25141793 -0.4568705 -0.11375502 -0.093758054
0.5259181 -0.44753316 0.37591833 -0.29105967 0.42029062 -0.46849573 -0.38623643 0.49738157
0.29611483 -0.07611529 0.13514975 0.3591637 0.25207344 0.44568604 -0.21548234 0.14174694
-0.295391 -0.023982717 -0.24785899 -0.2894578 0.31807655 -0.4483644 -0.4090934 0.34676132
-0.28151876 0.42215583 -0.10405222 0.19964857 -0.3022043 0.10297616 0.34865996 -0.31093335
-0.2826812 0.32209244 0.08023694 0.1129509 -0.29051813 0.42992574 0.37281078 0.30130985
-0.3896223 -0.27199355 0.22630444 0.18439777 0.233823 0.28852344 0.31773764 -0.3022884
-0.20561492 -0.028524086 0.2548014 -0.3467201 0.3782335 -0.25707322 -0.19141729 -0.007327516
-0.46155557 0.24573815 0.38989672 0.10058691 0.18940184 0.43276858 0.22977187 0.41060916
0.19063903 -0.2419775 -0.30261758 -0.10575224 -0.20849206 -0.28961167 0.28885138 -0.30342445
0.30219063 0.3728976 0.25843173 0.1675327 -0.38662753 0.32022876 -0.37437955 0.33563942
0.40458912 -0.4490416 0.07454337 0.44008315 -0.09380282 -0.29668453 -0.3843032 0.24692842
0.26145428 0.21316087 -0.25235593 0.1720235 0.21372019 -0.36037892 -0.32001278 0.38949212
0.25278875 -0.46702516 -0.4813624 0.024010504 0.16977435 -0.23590592 0.1884369 -0.051919535
0.4337023 0.2135893 -0.24511895 0.28416595 0.43423894 0.5029064 -0.23530947 0.19035652
0.40609068 -0.269262 -0.43656138 -0.48055264 0.03911609 0.09685496 -0.49715042 -0.29147613
0.45446366 0.24600925 -0.35007185 0.25797266 0.38491613 -0.18590857 0.43929535 -0.36139634
-0.37907422 0.21588415 -0.3566091 0.27825147 -0.44931567 -0.33348688 0.39597818 0.50432485
-0.40933925 0.24265419 0.36593744 -0.27582034 0.20193776 -0.39964497 0.07954236 -0.40648234
-0.037636127 0.32186544 0.28374672 -0.44288284 -0.1661895 0.04528396 0.5444701 -0.17501597
0.40721515 -0.091208704 0.36759487 -0.087262906 -0.37975276 0.44636914 0.31797415 -0.494483
-0.29707325 0.47534 0.29209873 0.008767392 -0.4538457 0.2303255 -0.1220256 0.072435595
0.08357509 -0.30516914 0.022119017 -0.22077672 -0.097633615 0.33651227 -0.4394485 0.17543131
0.26107273 -0.28250787 -0.40107018 -0.2085099 0.06390246 0.22009905 -0.24848202 -0.28738168
0.21690579 0.34415162 0.13135369 0.25094643 0.5157638 -0.3163171 -0.033877667 -0.30126745
0.42910406 -0.3793029 -0.10963279 0.43632913 0.24473438 -0.31460178 0.12125154 -0.1641378
0.33350217 -0.25071698 0.34056863 0.40740988 0.4672244 -0.22516014 -0.27497208 0.3102946
0.4484577 -0.28774676 -0.30089295 0.31527284 0.41834605 0.38352445 -0.48182172 -0.055714224
-0.2418297 0.23473886 -0.19511327 -0.34807912 0.3342358 -0.19751424 -0.2979938 0.41773283
-0.39362705 -0.14268145 0.36603084 -0.21485376 -0.3429643 -0.24315359 -0.47481605 -0.114707775
-0.3832999 -0.28669503 0.2643526 0.3929323 -0.33206603 0.2740984 0.43710762 -0.41530684
-0.22083521 -0.12070523 -0.1039908 -0.1529582 0.5447618 -0.030347172 0.20724745 -0.103409015
00000000: 85fd b3bc f370 a53d a8dc 813e e5d9 6c3e
00000010: dab9 803e eeea e9be 64f8 e8bd 3904 c0bd
00000020: 92a2 063f 1123 e5be 5e78 c03e c605 95be
00000030: 5530 d73e acde efbe c8c0 c5be cca8 fe3e
00000040: 5d9c 973e 55e2 9bbd b264 0a3e 4ee4 b73e
00000050: c50f 813e f630 e43e 67a7 5cbe 1c26 113e
00000060: 7d3d 97be 6777 c4bc bfce 7dbe d033 94be
00000070: eeda a23e 0590 e5be b174 d1be b38a b13e
00000080: 3a23 90be cf24 d83e 5519 d5bd ad70 4c3e
00000090: 86ba 9abe 2ae5 d23d 8f83 b23e a832 9fbe
000000a0: 97bb 90be 4de9 a43e 4453 a43d cd52 e73d
000000b0: cbbe 94be 3a1f dc3e 0ee1 be3e 4945 9a3e
000000c0: 937c c7be bd42 8bbe 5abc 673e c5d2 3c3e
000000d0: 4c6f 6f3e 58b9 933e 82ae a23e 8cc5 9abe
000000e0: b88c 52be 58ab e9bc 5475 823e 4c85 b1be
000000f0: d2a7 c13e 1a9f 83be e502 44be a91b f0bb
00000100: 0351 ecbe c8a2 7b3e 8ba0 c73e 8300 ce3d
00000110: 8ef2 413e d893 dd3e 5149 6b3e 5d3b d23e
00000120: e136 433e f3c8 77be b1f0 9abe a194 d8bd
00000130: f17e 55be fb47 94be 54e4 933e 735a 9bbe
00000140: bbb8 9a3e 6fec be3e 2a51 843e b18d 2b3e
00000150: 0bf4 c5be 06f5 a33e adae bfbe eed8 ab3e
00000160: 4e26 cf3e c8e8 e5be 32aa 983d 9452 e13e
00000170: b11b c0bd 09e7 97be 64c3 c4be ceda 7c3e
00000180: 56dd 853e d846 5a3e cc34 81be ee26 303e
00000190: 77d9 5a3e 9683 b8be b7d8 a3be 836b c73e
000001a0: 876d 813e ec1d efbe 2275 f6be adb1 c43c
000001b0: 54d9 2d3e 5291 71be 9af5 403e 94a9 54bd
000001c0: 3a0e de3e 27b7 5a3e 7600 7bbe 337e 913e
000001d0: 9154 de3e 79be 003f f7f4 70be d2ec 423e
000001e0: 1eeb cf3e b5dc 89be f984 dfbe ff0a f6be
000001f0: 3138 203d e55b c63d 808a febe 5c3c 95be
00000200: 76af e83e d9e9 7b3e 9e3c b3be fe14 843e
00000210: ba13 c53e d15e 3ebe 52eb e03e f108 b9be
00000220: 0416 c2be bc10 5d3e 7895 b6be fa76 8e3e
00000230: b40c e6be cbbe aabe a7bd ca3e 6f1b 013f
00000240: ea94 d1be 577a 783e 275c bb3e 5338 8dbe
00000250: c6c8 4e3e 449e ccbe 1be7 a23d 741e d0be
00000260: 5728 1abd 8ccb a43e 4047 913e 8ac1 e2be
00000270: 952d 2abe ac7b 393d 6462 0b3f 6337 33be
00000280: 817e d03e a1cb babd 6535 bc3e e5b6 b2bd
00000290: f46e c2be 7f8a e43e 82cd a23e e02c fdbe
000002a0: fc19 98be c45f f33e f78d 953e 1ba5 0f3c
000002b0: 775e e8be 73da 6b3e 8fe8 f9bd 1d59 943d
000002c0: 6b29 ab3d 213f 9cbe f132 b53c 4b13 62be
000002d0: 22f4 c7bd 564b ac3e 65ff e0be 44a4 333e
000002e0: 53ab 853e dfa4 90be 1259 cdbe 9f83 55be
000002f0: 4bdf 823d a561 613e 1272 7ebe b123 93be
00000300: 8d1c 5e3e a434 b03e 9581 063e 0d7c 803e
00000310: 1909 043f 51f4 a1be 4fc3 0abd ba3f 9abe
00000320: 87b3 db3e fd33 c2be 2887 e0bd 8866 df3e
00000330: a69b 7a3e 7c13 a1be ba52 f83d bd13 28be
00000340: ccc0 aa3e fa5d 80be 035f ae3e 0798 d03e
00000350: 0938 ef3e 6190 66be 24c9 8cbe efde 9e3e
00000360: 3f9c e53e 8b53 93be a40e 9abe 716b a13e
00000370: 7431 d63e 515d c43e 56b1 f6be 9934 64bd
00000380: 34a2 77be 625f 703e c6cb 47be 6d37 b2be
00000390: f420 ab3e 2c41 4abe a592 98be 14e1 d53e
000003a0: 7c89 c9be 161b 12be 6568 bb3e a002 5cbe
000003b0: 0499 afbe 41fd 78be 171b f3be e9eb eabd
000003c0: e23f c4be b1c9 92be 3959 873e 6c2e c93e
000003d0: 8f04 aabe a056 8c3e 92cc df3e 19a3 d4be
000003e0: a022 62be 4e34 f7bd 21f9 d4bd 13a1 1cbe
000003f0: 8275 0b3f a29a f8bc ad38 543e 1bc8 d3bd

lstm.bias_ih_l0 f4 [200]
0.13351206 0.29899335 0.4692108 -0.1246973 0.1770014 -0.048034176 -0.5748168 0.24167779
0.2537446 -0.43923458 -0.5287495 0.37010238 -0.30162588 -0.3248381 0.10226189 -0.36203656
-0.3915267 0.4541956 0.3553144 -0.43061474 -0.2282934 -0.4472539 -0.3152714 -0.45011374
-0.3673752 -0.27486366 -0.1934324 -0.4533715 0.15171686 0.3146519 -0.19379155 -0.25012925
-0.29676333 0.22759816 -0.038888108 0.20439072 -0.47841257 -0.43891904 0.27764243 -0.28813097
-0.49858037 -0.4714447 0.22716258 -0.521433 -0.35678813 -0.40521938 0.2869238 -0.32015297
-0.33046213 -0.38012457 0.09218042 -0.22948906 0.10588027 0.52588695 0.23730399 0.2322213
0.11262616 -0.3310597 -0.40703756 -0.39465258 -0.2744665 0.326942 -0.108292066 -0.13180003
-0.44606316 -0.3529295 -0.34160462 0.56854105 0.23216052 -0.3734555 -0.24384785 -0.35000026
0.3271907 -0.27920276 -0.33588699 0.25379074 0.4868334 -0.5225364 0.4627709 -0.26524937
-0.25431013 0.34393123 -0.42902264 -0.20441745 0.38216835 0.18035117 -0.22934148 -0.36399567
-0.27997124 -0.3137461 -0.304206 -0.35539606 0.408206 -0.45405132 -0.26873183 -0.3363115
-0.38889545 -0.37175468 -0.49115577 -0.32986546 0.48502842 -0.4318208 -0.4887972 0.28157443
0.33965752 -0.3323742 -0.42842087 -0.31262732 -0.24275292 -0.37616035 -0.39575157 0.30359676
0.30876467 0.4765974 0.26201022 0.18842317 -0.21803975 -0.28943262 -0.24057777 0.1431026
-0.22826439 -0.2643356 -0.30082527 0.21812156 0.09261209 0.28636163 -0.39832872 0.44558322
0.48784325 0.49233702 -0.44857174 0.30985507 -0.21280019 -0.33213764 0.45095298 -0.4742268
0.2725437 -0.2248064 -0.32826287 0.34502736 -0.3614938 -0.3174118 0.49596962 0.41512904
0.23123145 -0.33892965 -0.45742023 -0.36136645 0.40494558 -0.16894837 0.18591745 -0.51626503
0.28949878 0.06205941 -0.16649272 -0.47725818 -0.46922818 0.15329 -0.13562539 -0.42025718
-0.41946048 0.4015736 -0.55409724 -0.50771904 -0.24180134 -0.25831842 -0.2630267 -0.3425039
-0.31001297 -0.31916675 -0.3777526 -0.254216 -0.41602632 -0.5560444 -0.40707758 0.16896294
-0.47257832 -0.5531971 -0.1484678 -0.12346065 0.4503731 -0.16316323 -0.37598965 -0.1296647
-0.4641157 0.15326208 -0.35900983 -0.33424982 -0.01749493 -0.49697468 -0.2758596 -0.5419139
-0.43960348 -0.5617034 -0.31397277 -0.35286492 0.22532685 -0.38843873 -0.34187388 -0.4456133
00000000: 63b7 083e a815 993e 663c f03e 4c61 ffbd
00000010: db3f 353e 7cbf 44bd 3227 13bf 627a 773e
00000020: d0ea 813e 5be3 e0be 215c 07bf 0f7e bd3e
00000030: b56e 9abe 2e51 a6be af6e d13d db5c b9be
00000040: 3076 c8be 538c e83e c5eb b53e 8979 dcbe
00000050: bfc5 69be 77fe e4be 416b a1be 4f75 e6be
00000060: 9a18 bcbe eeba 8cbe 2513 46be 4f20 e8be
00000070: aa5b 1b3e 0e1a a13e 4b71 46be f110 80be
00000080: 5df1 97be 7e0f 693e 2349 1fbd cd4b 513e
00000090: 7ef2 f4be ffb9 e0be 2627 8e3e e785 93be
000000a0: ed45 ffbe 3361 f1be 4f9d 683e a27c 05bf
000000b0: efac b6be ea78 cfbe ade7 923e 17eb a3be
000000c0: 5532 a9be b09f c2be 17c9 bc3d 2eff 6abe
000000d0: c1d7 d83d 87a0 063f d1ff 723e 6ccb 6d3e
000000e0: 8ba8 e63d a880 a9be 3a67 d0be e70f cabe
000000f0: e086 8cbe f164 a73e 3bc8 ddbd 96f6 06be
00000100: 6462 e4be 2db3 b4be cde6 aebe e88b 113f
00000110: 7dbb 6d3e 8f35 bfbe 40b3 79be 3c33 b3be
00000120: 8a85 a73e aaf3 8ebe 61f9 abbe dcf0 813e
00000130: 3a42 f93e f2c4 05bf 4ff0 ec3e c4ce 87be
00000140: f034 82be c117 b03e dba8 dbbe cf52 51be
00000150: 92ab c33e faad 383e 7ed8 6abe a45d babe
00000160: 6458 8fbe 54a3 a0be e4c0 9bbe 79f6 b5be
00000170: 6000 d13e 6a79 e8be 3897 89be 0531 acbe
00000180: 4e1d c7be a156 bebe c578 fbbe 20e4 a8be
00000190: a555 f83e 9e17 ddbe a043 fabe 862a 903e
000001a0: 97e7 ad3e f32c aabe fb59 dbbe b010 a0be
000001b0: 3994 78be 1798 c0be f39f cabe 0971 9b3e
000001c0: 6716 9e3e 9304 f43e 3426 863e 01f2 403e
000001d0: d045 5fbe 8330 94be 055a 76be 7d89 123e
000001e0: 24be 69be ff56 87be c505 9abe 425b 5f3e
000001f0: 68ab bd3d fe9d 923e bef1 cbbe 7c23 e43e
00000200: 97c6 f93e 9913 fc3e 32ab e5be 53a5 9e3e
00000210: 4be8 59be f20d aabe 4fe3 e63e dbcd f2be
00000220: d98a 8b3e a633 66be 1212 a8be 6da7 b03e
00000230: b715 b9be cd83 a2be bbef fd3e cb8b d43e
00000240: f0c7 6c3e 3088 adbe fc32 eabe 0605 b9be
00000250: 0755 cf3e cd00 2dbe 2561 3e3e f229 04bf
00000260: 2f39 943e 0232 7e3d 117d 2abe 2f5b f4be
00000270: ad3e f0be 0ef8 1c3e 62e1 0abe f32b d7be
00000280: 86c3 d6be 0e9b cd3e 51d9 0dbf e0f9 01bf
00000290: c59a 77be 5042 84be 70ab 86be ac5c afbe
000002a0: 05ba 9ebe d369 a3be ca68 c1be 9928 82be
000002b0: 6701 d5be ed58 0ebf 796c d0be 9f04 2d3e
000002c0: c9f5 f1be 539e 0dbf f107 18be f0d8 fcbd
000002d0: 4e97 e63e 4314 27be b781 c0be d3c6 04be
000002e0: 93a0 edbe bcf0 1c3e 23d0 b7be cb22 abbe
000002f0: 8751 8fbc 7773 febe 783d 8dbe dfba 0abf
00000300: b513 e1be cbcb 0fbf 0ac1 a0be b6aa b4be
00000310: 15bc 663e 71e1 c6be 180a afbe 6d27 e4be

lstm.bias_hh_l0 f4 [200]
0.37826794 0.260172 0.2176822 0.0314994 0.3294596 0.13973902 -0.46162182 0.186649
0.4422955 -0.4054779 -0.5192835 0.34173116 -0.43356705 -0.39027545 0.14598636 -0.26856527
-0.4739623 0.31044227 0.25548697 -0.51707685 -0.35212138 -0.3911135 -0.18503572 -0.3316955
-0.20704535 -0.1734271 -0.31883073 -0.54786384 0.0928912 0.29319713 -0.112224095 -0.33214754
-0.37890017 0.49832574 0.084557585 0.057661075 -0.4873254 -0.32803127 0.26622343 -0.490732
-0.46598545 -0.5746123 0.35372737 -0.38844085 -0.3597449 -0.31807616 0.35117635 -0.2631521
-0.3915628 -0.56941664 0.05982063 -0.40261304 -0.07158649 0.39507473 0.41572633 0.048074223
0.050683 -0.5016821 -0.32390982 -0.36819765 -0.41775936 0.22360009 -0.28092352 -0.22493413
-0.4568159 -0.33609387 -0.40289363 0.43944454 0.4453351 -0.42626134 -0.36005008 -0.33549607
0.48192 -0.37454066 -0.3648216 0.23219343 0.380718 -0.35328504 0.5434088 -0.20379424
-0.28125218 0.43846446 -0.37878516 -0.21735696 0.29808897 0.10888949 -0.35008904 -0.42313284
-0.4544599 -0.37762576 -0.5380687 -0.33375365 0.3198226 -0.4113276 -0.25693446 -0.485828
-0.5003333 -0.42350313 -0.49909273 -0.3473094 0.4327527 -0.2751843 -0.36018825 0.22796024
0.32928723 -0.48914376 -0.47286102 -0.31216213 -0.3570409 -0.4107842 -0.26182586 0.32941523
0.32128757 0.25273538 0.31575975 0.26975834 -0.38809106 -0.36119264 -0.44975975 0.37080607
-0.21896437 -0.42777598 -0.27834746 0.22479302 -0.13877141 0.23456363 -0.36113328 0.39979637
0.43295252 0.26264426 -0.30927086 0.39599487 -0.20390555 -0.2807327 0.2407586 -0.24604435
0.2879663 -0.33508512 -0.28774956 0.3884617 -0.27141824 -0.33407426 0.45630237 0.30458668
0.28541335 -0.20114495 -0.34649023 -0.4069897 0.3872914 -0.19253142 0.095217325 -0.5360107
0.2566843 0.10758303 -0.29737163 -0.45496675 -0.5562453 0.20064092 -0.25770006 -0.21115716
-0.4520993 0.5475687 -0.4396235 -0.33177665 -0.45199117 -0.31108156 -0.42885658 -0.27891135
-0.3418592 -0.47526422 -0.4244218 -0.2990742 -0.34497502 -0.48884982 -0.24678795 0.21115799
-0.3059614 -0.42641345 -0.10990085 0.030864121 0.3067087 -0.1368975 -0.33151382 -0.35845524
-0.47230366 0.12089814 -0.30418608 -0.42343324 -0.19112688 -0.47533736 -0.4144145 -0.479133
-0.2991762 -0.3566913 -0.26779836 -0.30162618 0.20829631 -0.427807 -0.40997234 -0.44654617
00000000: 56ac c13e 4435 853e 15e8 5e3e 8405 013d
00000010: eeae a83e bf17 0f3e b259 ecbe ea20 3f3e
00000020: 8e74 e23e cd9a cfbe c3ef 04bf 63f7 ae3e
00000030: 80fc ddbe 2fd2 c7be 737d 153e 6381 89be
00000040: 30ab f2be 4af2 9e3e 30cf 823e 265f 04bf
00000050: 4149 b4be 0740 c8be 017a 3dbe fed3 a9be
00000060: b203 54be e096 31be c83d a3be ce40 0cbf
00000070: be3d be3d ef1d 963e bfd5 e5bd 3e0f aabe
00000080: 34ff c1be 8d24 ff3e 872c ad3d 052e 6c3d
00000090: b782 f9be b7f3 a7be 704e 883e 3a41 fbbe
000000a0: a595 eebe cb19 13bf c11b b53e b8e1 c6be
000000b0: 7c30 b8be e1da a2be 63cd b33e dfbb 86be
000000c0: eb7a c8be 4ac5 11bf 7a06 753d 4c23 cebe
000000d0: f09b 92bd 3c47 ca3e 15da d43e 7ae9 443d
000000e0: fa98 4f3d 3d6e 00bf 82d7 a5be 6784 bcbe
000000f0: 8ee4 d5be 6cf7 643e 35d5 8fbe 2255 66be
00000100: c6e3 e9be 7f14 acbe 1348 cebe e0fe e03e
00000110: f602 e43e ed3e dabe 7c58 b8be 24c6 abbe
00000120: 38be f63e cbc3 bfbe e6c9 babe 1dc4 6d3e
00000130: 78ed c23e c7e1 b4be d71c 0b3f 70af 50be
00000140: 4900 90be 6a7e e03e 21f0 c1be d392 5ebe
00000150: 1e9f 983e 7401 df3d df3e b3be dea4 d8be
00000160: f8ae e8be 2a58 c1be dfbe 09bf c2e1 aabe
00000170: cabf a33e 8899 d2be ea8c 83be 73be f8be
00000180: d815 00bf 67d5 d8be 1589 ffbe 8ad2 b1be
00000190: c391 dd3e f5e4 8cbe 986a b8be 696e 693e
000001a0: 5698 a83e 0d71 fabe d71a f2be b7d3 9fbe
000001b0: 11ce b6be 4f52 d2be 0a0e 86be 1da9 a83e
000001c0: ce7f a43e 8866 813e 43ab a13e c41d 8a3e
000001d0: dfb3 c6be 3eee b8be e946 e6be 4bda bd3e
000001e0: 3238 60be 7405 dbbe 8f83 8ebe 2430 663e
000001f0: 181a 0ebe 7331 703e 76e6 b8be 1cb2 cc3e
00000200: f4ab dd3e 4f79 863e c058 9ebe d7bf ca3e
00000210: 9ecc 50be 32bc 8fbe 6c89 763e 0df3 7bbe
00000220: 5270 933e 4790 abbe e953 93be 74e4 c63e
00000230: 55f7 8abe c80b abbe 77a0 e93e c9f2 9b3e
00000240: b321 923e f1f8 4dbe 2b67 b1be f460 d0be
00000250: 0f4b c63e f526 45be 4d01 c33d ff37 09bf
00000260: 206c 833e 7e54 dc3d 1841 98be 67f1 e8be
00000270: 1866 0ebf d074 4d3e 43f1 83be 9539 58be
00000280: 8f79 e7be 762d 0c3f 5516 e1be a1de a9be
00000290: 636b e7be 1546 9fbe 1793 dbbe 78cd 8ebe
000002a0: 2b08 afbe d555 f3be d04d d9be 4120 99be
000002b0: 91a0 b0be 864a fabe fbb5 7cbe cd39 583e
000002c0: f9a6 9cbe dd52 dabe b213 e1bd c1d6 fc3c
000002d0: ec08 9d3e dc2e 0cbe 2ebc a9be 7287 b7be
000002e0: c9d1 f1be 7299 f73d 47be 9bbe 3ecc d8be
000002f0: c4b6 43be 6b5f f3be 232e d4be ec50 f5be
00000300: 9f2d 99be 3ea0 b6be de1c 89be bf6e 9abe
00000310: a14b 553e 8509 dbbe e5e7 d1be b3a1 e4be

hidden2label.weight f4 [2, 50]
0.008224757 0.21691832 0.10315696 -0.26088986 0.20931074 0.15502821 -0.1090524 0.26996538
-0.08902754 0.15176399 0.003326836 -0.1747908 0.053228732 -0.044539925 -0.123433694 -0.039926037
-0.33769143 0.37767527 -0.18017074 -0.31784898 -0.30314413 -0.0005359972 0.3058923 -0.2738862
-0.27913564 -0.044383686 -0.2177228 -0.40957296 -0.18670072 -0.28242445 -0.021361668 0.021976538
0.005954139 -0.037259635 -0.07825945 -0.021560835 -0.10971082 -0.017035635 -0.021143343 0.31078568
-0.122567706 -0.105197705 -0.035433456 0.21616316 0.30932865 0.23794447 0.27481186 -0.1047794
-0.07106829 -0.15787001 -0.09693015 -0.032223135 -0.057671115 0.21605998 -0.26127082 -0.17861283
0.01961686 -0.3331825 0.18392998 -0.3796753 0.16104989 0.24698447 0.018514138 0.2508249
0.2492889 0.1775544 0.21692158 -0.21770272 0.2608972 0.063542984 0.22726734 0.043566298
-0.04904934 0.30645707 0.16705815 -0.00305635 0.055585213 0.2463756 0.32839447 0.22299124
0.032674965 0.002565269 0.16099687 -0.11423732 0.12019221 0.15101413 0.008716569 0.13893464
0.012827953 -0.22979163 0.35900202 -0.05734497 0.27525458 -0.13328698 -0.19720358 -0.024856927
-0.38474625 -0.06322404 0.108483806 0.33799043
00000000: 22c1 063c d61f 5e3e f543 d33d 5b93 85be
00000010: 8e55 563e b7bf 1e3e dd56 dfbd e738 8a3e
00000020: 1254 b6bd 0568 1b3e 0c07 5a3b 5cfc 32be
00000030: 5f06 5a3d 7f6f 36bd ceca fcbd 7c89 23bd
00000040: e4e5 acbe a75e c13e ae7e 38be 1abd a2be
00000050: b535 9bbe 2a82 0cba ea9d 9c3e d03a 8cbe
00000060: deea 8ebe abcb 35bd baf2 5ebe 8cb3 d1be
00000070: 792e 3fbe f099 90be aafe aebc 2408 b43c
00000080: f01a c33b 8f9d 18bd 7e46 a0bd 59a0 b0bc
00000090: 11b0 e0bd 518e 8bbc ce34 adbc 4d1f 9f3e
000000a0: c704 fbbd e571 d7bd ac22 11bd e059 5d3e
000000b0: 5360 9e3e b7a7 733e 24b4 8c3e 9596 d6bd
000000c0: 408c 91bd ada8 21be 5183 c6bd 68fc 03bd
000000d0: 8c38 6cbd d43e 5d3e 4ac5 85be 48e6 36be
000000e0: 8ab3 a03c e696 aabe 2458 3c3e cd64 c2be
000000f0: 43ea 243e 7fe9 7c3e f6aa 973c 1f6c 803e
00000100: 9745 7f3e d2d0 353e b120 5e3e 76ed 5ebe
00000110: 5194 853e d322 823d c5b8 683e 9372 323d
00000120: f6e7 48bd f1e7 9c3e 4b11 2b3e 0b4d 48bb
00000130: 52ad 633d e349 7c3e 5223 a83e d157 643e
00000140: 2fd6 053d 121e 283b 5ddc 243e 42f5 e9bd
00000150: 5527 f63d 73a3 1a3e f1cf 0e3c e244 0e3e
00000160: 562c 523c 7f4e 6bbe 1dcf b73e 8fe2 6abd
00000170: 2bee 8c3e 627c 08be bcef 49be c1a0 cbbc
00000180: 76fd c4be 9b7b 81bd c22c de3d 150d ad3e

hidden2label.bias f4 [2]
-0.28790495 0.48548132
00000000: 4768 93be 0291 f83e
